…
Loading checkpoint shards: 100%|███████████████████████████████████████████████████████████████████████████████████████████████| 4/4 [00:00<00:00,  5.69it/s]Loading checkpoint shards: 100%|███████████████████████████████████████████████████████████████████████████████████████████████| 4/4 [00:00<00:00,  5.64it/s]
Loading checkpoint shards: 100%|███████████████████████████████████████████████████████████████████████████████████████████████| 4/4 [00:00<00:00,  5.41it/s]Loading checkpoint shards: 100%|███████████████████████████████████████████████████████████████████████████████████████████████| 4/4 [00:00<00:00,  5.35it/s]
Actor(
  (model): LlamaForCausalLM(
    (model): LlamaModel(
      (embed_tokens): Embedding(128256, 2048)
      (layers): ModuleList(
        (0-15): 16 x LlamaDecoderLayer(
          (self_attn): LlamaFlashAttention2(
            (q_proj): Linear(in_features=2048, out_features=2048, bias=False)
            (k_proj): Linear(in_features=2048, out_features=512, bias=False)
            (v_proj): Linear(in_features=2048, out_features=512, bias=False)
            (o_proj): Linear(in_features=2048, out_features=2048, bias=False)
            (rotary_emb): LlamaRotaryEmbedding()
          )
          (mlp): LlamaMLP(
            (gate_proj): Linear(in_features=2048, out_features=8192, bias=False)
            (up_proj): Linear(in_features=2048, out_features=8192, bias=False)
            (down_proj): Linear(in_features=8192, out_features=2048, bias=False)
            (act_fn): SiLU()
          )
          (input_layernorm): LlamaRMSNorm((2048,), eps=1e-05)
          (post_attention_layernorm): LlamaRMSNorm((2048,), eps=1e-05)
        )
      )
      (norm): LlamaRMSNorm((2048,), eps=1e-05)
      (rotary_emb): LlamaRotaryEmbedding()
    )
    (lm_head): Linear(in_features=2048, out_features=128256, bias=False)
  )
)
RewardModel(
  (model): LlamaModel(
    (embed_tokens): Embedding(128256, 4096)
    (layers): ModuleList(
      (0-31): 32 x LlamaDecoderLayer(
        (self_attn): LlamaFlashAttention2(
          (q_proj): Linear(in_features=4096, out_features=4096, bias=False)
          (k_proj): Linear(in_features=4096, out_features=1024, bias=False)
          (v_proj): Linear(in_features=4096, out_features=1024, bias=False)
          (o_proj): Linear(in_features=4096, out_features=4096, bias=False)
          (rotary_emb): LlamaRotaryEmbedding()
        )
        (mlp): LlamaMLP(
          (gate_proj): Linear(in_features=4096, out_features=14336, bias=False)
          (up_proj): Linear(in_features=4096, out_features=14336, bias=False)
          (down_proj): Linear(in_features=14336, out_features=4096, bias=False)
          (act_fn): SiLU()
        )
        (input_layernorm): LlamaRMSNorm((4096,), eps=1e-05)
        (post_attention_layernorm): LlamaRMSNorm((4096,), eps=1e-05)
      )
    )
    (norm): LlamaRMSNorm((4096,), eps=1e-05)
    (rotary_emb): LlamaRotaryEmbedding()
  )
  (value_head): Linear(in_features=4096, out_features=1, bias=False)
)
[2024-10-21 21:15:42,418] [INFO] [logging.py:96:log_dist] [Rank 0] DeepSpeed info: version=0.15.0, git-hash=unknown, git-branch=unknown
[2024-10-21 21:15:42,418] [INFO] [comm.py:677:init_distributed] Distributed backend already initialized
[2024-10-21 21:15:42,418] [INFO] [config.py:733:__init__] Config mesh_device None world_size = 4
[2024-10-21 21:15:42,522] [INFO] [config.py:733:__init__] Config mesh_device None world_size = 4
…
Loading checkpoint shards:  25%|███████████████████████▊                                                                       | 1/4 [00:00<00:00,  7.48it/s]Loading checkpoint shards:  50%|███████████████████████████████████████████████▌                                               | 2/4 [00:00<00:00,  7.54it/s]Loading checkpoint shards:  75%|███████████████████████████████████████████████████████████████████████▎                       | 3/4 [00:00<00:00,  7.59it/s]Loading checkpoint shards: 100%|███████████████████████████████████████████████████████████████████████████████████████████████| 4/4 [00:00<00:00,  7.84it/s]Loading checkpoint shards: 100%|███████████████████████████████████████████████████████████████████████████████████████████████| 4/4 [00:00<00:00,  7.73it/s]
Actor(
  (model): LlamaForCausalLM(
    (model): LlamaModel(
      (embed_tokens): Embedding(128256, 2048, padding_idx=128009)
      (layers): ModuleList(
        (0-15): 16 x LlamaDecoderLayer(
          (self_attn): LlamaFlashAttention2(
            (q_proj): Linear(in_features=2048, out_features=2048, bias=False)
            (k_proj): Linear(in_features=2048, out_features=512, bias=False)
            (v_proj): Linear(in_features=2048, out_features=512, bias=False)
            (o_proj): Linear(in_features=2048, out_features=2048, bias=False)
            (rotary_emb): LlamaRotaryEmbedding()
          )
          (mlp): LlamaMLP(
            (gate_proj): Linear(in_features=2048, out_features=8192, bias=False)
            (up_proj): Linear(in_features=2048, out_features=8192, bias=False)
            (down_proj): Linear(in_features=8192, out_features=2048, bias=False)
            (act_fn): SiLU()
          )
          (input_layernorm): LlamaRMSNorm((2048,), eps=1e-05)
          (post_attention_layernorm): LlamaRMSNorm((2048,), eps=1e-05)
        )
      )
      (norm): LlamaRMSNorm((2048,), eps=1e-05)
      (rotary_emb): LlamaRotaryEmbedding()
    )
    (lm_head): Linear(in_features=2048, out_features=128256, bias=False)
  )
)
RewardModel(
  (model): LlamaModel(
    (embed_tokens): Embedding(128256, 4096)
    (layers): ModuleList(
      (0-31): 32 x LlamaDecoderLayer(
        (self_attn): LlamaFlashAttention2(
          (q_proj): Linear(in_features=4096, out_features=4096, bias=False)
          (k_proj): Linear(in_features=4096, out_features=1024, bias=False)
          (v_proj): Linear(in_features=4096, out_features=1024, bias=False)
          (o_proj): Linear(in_features=4096, out_features=4096, bias=False)
          (rotary_emb): LlamaRotaryEmbedding()
        )
        (mlp): LlamaMLP(
          (gate_proj): Linear(in_features=4096, out_features=14336, bias=False)
          (up_proj): Linear(in_features=4096, out_features=14336, bias=False)
          (down_proj): Linear(in_features=14336, out_features=4096, bias=False)
          (act_fn): SiLU()
        )
        (input_layernorm): LlamaRMSNorm((4096,), eps=1e-05)
        (post_attention_layernorm): LlamaRMSNorm((4096,), eps=1e-05)
      )
    )
    (norm): LlamaRMSNorm((4096,), eps=1e-05)
    (rotary_emb): LlamaRotaryEmbedding()
  )
  (value_head): Linear(in_features=4096, out_features=1, bias=False)
)
[2024-10-21 22:32:38,093] [INFO] [logging.py:96:log_dist] [Rank 0] DeepSpeed info: version=0.15.0, git-hash=unknown, git-branch=unknown
[2024-10-21 22:32:38,094] [INFO] [comm.py:677:init_distributed] Distributed backend already initialized
[2024-10-21 22:32:38,094] [INFO] [config.py:733:__init__] Config mesh_device None world_size = 4
[2024-10-21 22:32:40,096] [INFO] [config.py:733:__init__] Config mesh_device None world_size = 4
…
